model.pth (torch, 313204 bytes, 6 tensors)

lstm.weight_ih_l0 f4 [512, 13]
00000000: f16e 1bbd 08b5 88bd bad2 bbbd eea5 3f3d
00000010: 6d0f 133c 1cf9 7cbc bfcd a13c 88bb 08bd
00000020: 630d 89bd 5bbe 88bd e1d6 db3d fa9c bbbd
00000030: 6003 b4bd 4289 e1bd 434e c63d b1ff c1bd
00000040: 1db6 37bd 971c 44bd 7baf 153d 80f8 e23c
00000050: 3880 8abd fdfa cfbc 05a1 9b3d 992e 4c3d
00000060: 2da8 7a3d 49b7 45bc 6e52 5ebc 0480 e2bc
00000070: 9ef4 88bd edfd 0dbd 0dc5 cdbc c246 7b3d
00000080: c0c2 c53c 2027 16bd b11b 463d ec96 993d
00000090: 74d5 633d 36b0 8e3d 12df 1d3c b548 0dbd
000000a0: b11f 81bd 2429 c6bb f518 c4bd 1a01 0abd
000000b0: 1b00 673d 215e 643d a4ec 38bd 060a 88bc
000000c0: 543d 863d 704e 573d 67c1 2d3d b24c 26bd
000000d0: 5f41 cb3d 0921 92bd a0b3 b53d 891d 84bc
000000e0: 57a7 d23d 26e3 3abd 17e8 3d3d c05c debc
000000f0: f82d 0fbd 3d94 75bd 55f5 b23d 769c 32bd
00000100: e653 8abd 5f86 e13c 9a63 913c d1d2 1dbd
00000110: 5f51 1d3d cfe6 8c3d 8c1d 6b3d faa9 c0bc
00000120: 0093 88bd 30d3 28bd 4b6b c23d c733 713d
00000130: e0ed 71bc ff02 a2bd d652 38bd 70df c63c
00000140: 7183 e8bc e9a2 373d 2943 8f3d 472a a63c
00000150: 7ec1 863d 302e c8bd 3c68 7fbd f881 55bd
00000160: 13eb 1f3c b116 053d b64e cebd 051c 4a3d
00000170: ba71 2abd 37a1 86bc 8cd4 07bd d638 023d
00000180: 423c e03d 7a76 9fbc 74bb 7cbd e5ec 893d
00000190: 55cc 5d3d ee59 953d e232 3fbd fca6 bd3b
000001a0: 5a2c cebb ac9f c23c 4069 da3d e8a3 9dbc
000001b0: 12ac 953d 3e54 8bbc 02c7 293c 5396 3fbd
000001c0: 713b 34bd 57dd 493d 90db 1a3b d274 823b
000001d0: 61f3 7b3b 0940 b13d 9993 e3bc 3962 d43d
000001e0: dc07 38bb 53a9 b23d 95d7 a2bd a063 33bd
000001f0: da99 44bd c1f4 37bd 0a90 a23d c22a 92bd
00000200: 1764 403d 2069 81bc 53e6 80bc 13f8 a4bd
00000210: ec3c a6ba 6f5b 483d db08 86bd aef8 b8bd
00000220: 28cb eebc 3380 313d 2f21 b53d ef93 35bd
00000230: 0812 ed3c 0fd7 5fbb e977 47bd 7f99 9e3d
00000240: 5bb2 9cbd 268f 61bd 8231 53bd 4cee 6b3c
00000250: 0a5b a23d bd05 423d 081c 733d 5217 3f3d
00000260: 82b3 3c3c 3089 a33d 64c9 cc3c 0f66 893d
00000270: 9729 d93b 9421 933d 2f53 86bd bb3a af3c
00000280: ef24 aabc b974 33bd 6794 0c3c 87ae 2e3d
00000290: 259c 84bd b32e 05bd a03c 12bd 7e3a 50ba
000002a0: e6c2 25bd 3d98 2abd 04de 87bd eb24 94bd
000002b0: dd59 b13d cd2c 36bd ccba e3bc 5b59 9cbd
000002c0: 4a05 ccbd f5c9 c6bc 4954 99bd 1ea1 4dbc
000002d0: 5336 78bd da55 a53c 9a16 993d be77 543d
000002e0: e77b 40bd 3af9 62bd 10ac a73d aa16 f23c
000002f0: 0193 de3c a972 873d faa4 c63d 6837 3c3c
00000300: 892c 253d f2b0 01bd 068d 403c 42bc 57bd
00000310: 3464 913c f1be 6f3c 2e44 66bc 7785 0e3d
00000320: 7f0e 88bd 8943 0c3d 5672 3f3d e782 aebd
00000330: 9249 babd dab3 e03a 55a2 ff3c e065 9f3d
00000340: 1efc 1fbd 034c 9c3c d4b6 febc 2e87 50bd
00000350: d2ad 023c 83d8 e6bb 045c b2bc 6a88 a7bb
00000360: 7708 95bd 672f edbc 05f7 363d 5f65 c23c
00000370: 03ed cdba 9840 263d ede8 c33d e5d9 2a3d
00000380: 0ed3 2d3d 008e ce3d 87bf f03c 8601 7a3d
00000390: 6e58 65bc e746 2fbd 1cfa 29bd 97ed a2bd
000003a0: a74d d8bd 6912 893c a72c b8bd 0f2b ca3d
000003b0: c670 98bd 2f22 54bd 0d7c d23c 50fb a13c
000003c0: 7e96 26bd 2fb6 c8bd e78b 46bd c33f c3bd
000003d0: 39a8 aabb ad2c 7f3d c071 d6ba 8bdb f8bc
000003e0: 7de6 4f3d 2d6a ed3c 5521 093c 61ae abba
000003f0: 72a5 803d 1a68 b73d 7e6c 9b3d 722d 09bd
-0.0379476 -0.06675154 -0.09171052 0.046789102 0.008975846 -0.015440252 0.019751428 -0.03338197
-0.066920064 -0.066769324 0.10734344 -0.091608 -0.08789706 -0.11012508 0.09682896 -0.094725974
-0.04485141 -0.047878828 0.036544304 0.027706385 -0.06762737 -0.025388235 0.075990714 0.049849126
0.06119554 -0.012067624 -0.013569457 -0.027648933 -0.06687282 -0.03466599 -0.025118375 0.061346777
0.024140716 -0.036658406 0.048366252 0.07499489 0.055623487 0.06967203 0.009635704 -0.034493167
-0.06304873 -0.006047385 -0.09575073 -0.033692457 0.056396585 0.05575383 -0.045147553 -0.016606342
0.06554666 0.05256504 0.04242077 -0.040600486 0.09924578 -0.07135207 0.088721514 -0.016127365
0.10285824 -0.045626782 0.046363916 -0.027143836 -0.03495595 -0.059955824 0.087381996 -0.043606244
-0.067542836 0.027529893 0.017747689 -0.03853113 0.03840768 0.06879961 0.057401225 -0.023518551
-0.06668663 -0.04121703 0.09493121 0.05888727 -0.0147661865 -0.07910728 -0.045000874 0.024276465
-0.028382989 0.044833098 0.06995232 0.020283831 0.065798745 -0.097744346 -0.062355265 -0.0521259
0.009760636 0.032492343 -0.10073607 0.049343128 -0.041612364 -0.016434295 -0.033161685 0.031792484
0.10948993 -0.019465674 -0.061702207 0.06734637 0.054149944 0.07292543 -0.046679385 0.0057877284
-0.006291908 0.023757778 0.10664606 -0.019243196 0.073082104 -0.017007943 0.010362389 -0.04677422
-0.044002 0.04928335 0.0023629405 0.003981211 0.0038444626 0.08654792 -0.027780341 0.10370297
-0.0028080856 0.08723702 -0.07951275 -0.04379618 -0.047998287 -0.04491115 0.079376295 -0.07137062
0.046970453 -0.015797198 -0.015734827 -0.08055129 -0.0012682951 0.048915323 -0.06544658 -0.09031807
-0.029149607 0.04333515 0.0884422 -0.044330534 0.028939262 -0.0034155285 -0.04869834 0.07744121
-0.07651206 -0.055068158 -0.051560886 0.014400076 0.079275206 0.047368754 0.059352905 0.0466531
0.011517407 0.07985151 0.024998374 0.06708919 0.0066272723 0.07184139 -0.06558835 0.02139031
-0.020769564 -0.043812487 0.008580304 0.04264691 -0.06475095 -0.03251524 -0.035702348 -0.00079432863
-0.040469073 -0.041649092 -0.06634143 -0.07233604 0.08659718 -0.04447632 -0.027799033 -0.07634231
-0.09961946 -0.024266222 -0.07486779 -0.01255062 -0.060598683 0.020182539 0.07475014 0.051872008
-0.046993162 -0.055413462 0.08187115 0.029551823 0.027169706 0.066136666 0.096994355 0.011487819
0.040325675 -0.03166289 0.011752373 -0.05266977 0.017747976 0.014632926 -0.014054341 0.03479525
-0.0664339 0.034244094 0.0467399 -0.085210614 -0.09096064 0.0017143444 0.031205336 0.07783103
-0.039058797 0.019079214 -0.031093039 -0.050910167 0.007976012 -0.007044853 -0.021772392 -0.0051126974
-0.07277005 -0.028953267 0.04466917 0.023729978 -0.0015710894 0.040588945 0.095659114 0.041711707
0.042437606 0.10085678 0.029388202 0.06103661 -0.013998134 -0.042792227 -0.04149829 -0.07955473
-0.10561686 0.016732411 -0.08992892 0.09871494 -0.07443385 -0.051790413 0.025693918 0.019773155
-0.040670864 -0.09800374 -0.048473265 -0.09533646 -0.005208042 0.062298466 -0.0016360804 -0.030378124
0.05075692 0.028981293 0.008369763 -0.0013098234 0.06281556 0.08955403 0.075890526 -0.033490606

lstm.weight_hh_l0 f4 [512, 128]
00000000: 8adc 3fbd 1a37 b0bc 9290 3abd 88b0 75bd
00000010: fccc a83d e971 8abd 7507 81bd 4c1b 553c
00000020: 903f c43d 08d5 9d3d 6345 3c3c 5e00 01bd
00000030: 9cea a73c 0cf7 87bd 7e99 b2bd a518 973d
00000040: c2ce 82bd a42d f0bc b860 683d 3aad 2dbd
00000050: 5815 293d 9f6b 14bd d945 c43c 9012 3abd
00000060: ad29 d83d cdd4 7abc 864f da3a 9d4c ad3d
00000070: aadb 95bd f575 9c3d aba5 153d 3cac 4b3c
00000080: db9a 87bd 15bc 403d 7413 813d 2057 d73c
00000090: 43d0 543d b085 ffbc 7a62 e83c e39a 38bd
000000a0: 88ea 633c 9687 1d3d a25e ba3d 39f7 77bd
000000b0: 3750 af3d cf08 b13d 4445 873d 2d75 753d
000000c0: fd51 83bc b1fd 0abd b904 883d 6c2f b73d
000000d0: c9e3 65bd e4b9 7e3d f4b7 983b d5da e7bc
000000e0: 0274 ae3d 7a29 7cbd abef de3c e2bd d73d
000000f0: 6dd8 a3bd 5120 80bc f0f2 6c3d 8e73 15bd
00000100: da41 31bd 8cea 383d 4a05 bc3c 687b 51bd
00000110: 2d7a dcbc eac5 ddbc 8947 693d 899f 3bbd
00000120: 3441 c2bd 66d2 9dbd 0f06 a2bc 2949 733c
00000130: 27a8 bf3d 7ce7 a03d 085c 813d f8a2 8fbc
00000140: 392d 103d 60f2 98bc 4822 18bd afa8 06bd
00000150: f76f de3b 2d06 543d 0cfd 9b3d 4db3 d9bc
00000160: 299e c63c b4a6 903d 2243 c93d 0627 1ebd
00000170: 1d70 a53b f0b1 91bd 50c4 883d 2a23 333d
00000180: 8078 e1b8 165c d13d 0f8a 9d3d c029 44bc
00000190: 42ba 7ebc d6d1 843d f377 b13a 4c1f ad3d
000001a0: 3f40 16bc 1586 b9bd c086 ea3b bf45 b7bd
000001b0: 14bb 80bb 5313 b2bd 8505 b5bd d618 f7bb
000001c0: b081 403d 7fcb 02bb 592a 4ebd 3974 05bd
000001d0: ca0c 70bb d002 89bd 8692 2abd 3cc9 483d
000001e0: 623d 6fba 6f01 f83c 743e a23d 99d1 8cbd
000001f0: 8b0b bf3d 53df 073d 3129 64bd 9f4c 83bc
00000200: d43d 853d f1ef 8b3d 8ed8 53bd a7fb b1bd
00000210: c8c4 15bc aaf0 48bd fe5b c43d 096e 443d
00000220: 089c e9ba 3cb3 483d 8062 19bd fccb faba
00000230: f585 13bc 1912 cabd 8085 8a3d a8a8 803b
00000240: a88b 66bd 2c59 0dbd e038 3e3a a9d0 a1bd
00000250: 9c5d c6b9 88fb d3bd ae2a c9bd 06b1 fabc
00000260: 5228 7a3d b40f f03c 744e 84bc 554f 9f3c
00000270: a62c b739 4907 973c c14f 4c3d a688 d23c
00000280: ae0d 56bd 3807 643d f8f6 d4ba 856a 1abd
00000290: 5d66 983d 5817 0e3d 717b ac3d 664a b2bd
000002a0: 32aa 5e3d 77dd 653d b6fa 643d 5e37 8bbc
000002b0: 72ce d5bc f92c 563d cfab 70bd e3c9 853b
000002c0: 6328 a73d 584d 4d3c 120a d13c f85d ec3c
000002d0: af09 49bc af44 c53d cf25 573c 72c1 6f3c
000002e0: c14d a13d b707 893d 9c5f 85bd 2e89 b5bd
000002f0: 505c 313d c7c1 3dbd 0f11 5abd 6fc9 673d
00000300: a715 873d 040a 9d3d 241d ac3d a2df 96bd
00000310: dd22 a83d 0f70 0d3d 102a 8abd e1b5 97bd
00000320: 1ce1 9dbc f0e2 903d 84dc 92bc 3686 62bd
00000330: 9617 3dbc 3c89 07bd 2dce 3abd 7875 483a
00000340: 4a1e 463d 5dea d2bc b82b b73c 262c 633d
00000350: 1f7e 8e3d 9050 4e3c 65d6 a13d e391 9b3b
00000360: 9c32 a43d 4127 acbc 634a e73b beb9 6abd
00000370: 6fbb 7abd d25b 44bd afd9 cf3d 7321 4c3b
00000380: aaa1 6d3d 5fdc fa3c 4ecd 0fbd a600 573d
00000390: 3822 133d f803 493c 18a7 513d 7a21 343d
000003a0: d301 8d3d 83f5 cdbc 5db1 a9bd b56c 993d
000003b0: 9263 7a3d 607f f4bc 92cf 45bd 6c09 a83d
000003c0: f4b8 8bbd 1d21 c53c 2c25 85bd f9ba 9bbd
000003d0: 4beb 9bbd 3696 33bc 6059 abbb 05be 80bc
000003e0: d347 473d d7da 1cbc 348f 6abb 5b39 8c3c
000003f0: 84fb 03bb e171 14bd b7cd 7e3d 8198 7abd
-0.04684118 -0.02151065 -0.04554803 -0.059982806 0.08242223 -0.06760008 -0.063002504 0.013006996
0.09582436 0.07706648 0.011491152 -0.03149449 0.020497613 -0.06638917 -0.087206826 0.073777474
-0.06387092 -0.029318638 0.056732863 -0.04240153 0.04128012 -0.036235448 0.023959087 -0.04542786
0.10554824 -0.015309525 0.001665578 0.084618784 -0.07317288 0.07639686 0.036534946 0.012431201
-0.06621333 0.04705437 0.063025385 0.026286662 0.051956426 -0.031191677 0.02836727 -0.045069586
0.013910897 0.038459383 0.09100081 -0.060538504 0.08560222 0.08644258 0.06605008 0.0599262
-0.016030306 -0.033933345 0.06641526 0.08944592 -0.056125436 0.062188998 0.004660601 -0.02830259
0.085182205 -0.061562993 0.027213892 0.10534264 -0.08000264 -0.01564041 0.05784887 -0.036487155
-0.04327569 0.045145556 0.02295174 -0.05114308 -0.026913727 -0.027071912 0.056952987 -0.04580644
-0.09485093 -0.07706146 -0.01977828 0.014848986 0.093582444 0.07856652 0.06316382 -0.017533764
0.035199378 -0.01867026 -0.03714207 -0.032875713 0.0067882496 0.051763702 0.07616624 -0.026574755
0.024245339 0.07063046 0.09827258 -0.038611434 0.0050487653 -0.07114017 0.06678069 0.043734707
-0.00010751281 0.10222642 0.07692348 -0.011972845 -0.015547337 0.064853355 0.0013539776 0.08453235
-0.009170591 -0.09058777 0.0071571767 -0.0894885 -0.0039285515 -0.08695092 -0.088389434 -0.0075408025
0.04699868 -0.001995772 -0.050333355 -0.03258154 -0.0036628717 -0.066899896 -0.041643642 0.049020037
-0.0009126273 0.030274121 0.07922068 -0.06875915 0.093283735 0.033171963 -0.055703346 -0.016027747
0.065059334 0.068328746 -0.051720195 -0.08690577 -0.009141155 -0.04905764 0.095878586 0.0479565
-0.001782299 0.048999056 -0.037447453 -0.0019134278 -0.009004106 -0.09866733 0.06763744 0.0039263554
-0.05628553 -0.03450887 0.00072564 -0.07901127 -0.00037835247 -0.1035071 -0.09822594 -0.03060199
0.06107361 0.029304363 -0.01615069 0.019447008 0.00034937746 0.018436091 0.049880747 0.025699925
-0.05225914 0.055670947 -0.0016247919 -0.03769924 0.07441399 0.03469023 0.08421982 -0.087055966
0.05436153 0.05611941 0.05590316 -0.016994175 -0.026099417 0.052288983 -0.0587576 0.0040829047
0.08162 0.012530647 0.025517497 0.028853402 -0.012270375 0.09632241 0.013131573 0.014633523
0.078761585 0.066909246 -0.06512377 -0.088640556 0.043300927 -0.04632738 -0.053238925 0.056588586
0.06595927 0.07667926 0.08403996 -0.07366873 0.08209775 0.034530696 -0.06746304 -0.074077375
-0.01927238 0.07074535 -0.017927416 -0.055303775 -0.011541268 -0.03308986 -0.04560678 0.0007646899
0.04836873 -0.025746519 0.022359714 0.055462025 0.069576494 0.01259245 0.07902221 0.0047476157
0.080174655 -0.021014811 0.007058428 -0.057306044 -0.061213907 -0.04793913 0.10148942 0.0031147867
0.058015503 0.03062266 -0.035107903 0.052490853 0.035921305 0.012269013 0.051184744 0.04397724
0.068851136 -0.025141483 -0.082857825 0.07491437 0.061130114 -0.029845893 -0.048293658 0.08204922
-0.068223864 0.024063641 -0.065012306 -0.076040216 -0.07613238 -0.010961106 -0.00522916 -0.015715608
0.04865248 -0.00957366 -0.0035790922 0.017117193 -0.0020138929 -0.036241416 0.062207904 -0.061180595

lstm.bias_ih_l0 f4 [512]
00000000: 8eeb c43d 7ccf 62bd 5b64 8c3d 07d9 9e3c
00000010: c3fa 453c e177 95bc 5a1e d8bb 3409 da3c
00000020: 0ca6 22bd f4b2 a23d e336 023d 8992 683d
00000030: b51f f0bc 193d f6bc 984c 1e3c ccf8 a7bc
00000040: 88d2 98bb 4018 5fbd 4fa7 073d 1380 893c
00000050: 8417 8bbc a9a5 7c3d bd5e 6dbd 1c5b 6fbc
00000060: e538 edbc 475f b73d 2ac6 1ebd 0611 8b3d
00000070: ee62 c33d 1cb8 943d 91ff bd3d 389c e6bc
00000080: 108a 63bb 42f4 6cbd a1f7 04bd c29c 223c
00000090: 5384 163d fdad 723c 003c 923d 669c 883d
000000a0: 1c24 d63c ac38 b63d 51ae 9d3d d371 dd3d
000000b0: c194 d4bc 5641 733d 8126 673d 98b9 083d
000000c0: 1ede 69bd 8a1b 9abd 9eea e5bc 5391 a4bd
000000d0: 90c3 80bd 6258 0d3c 7476 993d 64c5 e7bc
000000e0: b0cd 8aba 01bd 4f3d c3df 05bd 1bb4 023d
000000f0: 0689 2c3d 767c 4c3c 5600 6f3d 6ef0 883d
00000100: 63e2 a33d 56db 28bd fefa 993d 0488 5dbd
00000110: b49f 72bd eb83 f73d 0736 b83d c235 9e3d
00000120: 6bb8 993d 8611 b2bb 8e80 b3bb c648 b6bc
00000130: 8946 a83d 1b21 833d 62f6 00bd 13ea 333d
00000140: a9ba 823d fc2b dcbb a8f7 6fbd ae6a 45bd
00000150: 06e7 89bd eabf c73d 705d f63c 688e 40bd
00000160: 4460 b93c a05e 1cbd e953 57bc 42ed 853c
00000170: b740 b23c 07a8 9f3d 1f12 30bd 6261 80bb
00000180: f0a3 6ebd c63e 753d 946a 65bd ee1f a33c
00000190: 7682 6dbd 32d2 32bd 6a59 423d 54dc 7fbd
000001a0: ecab 16bd 77c8 8bbd 7137 0c3d 1d5e d83d
000001b0: 864a 503d 8374 bfbb 377a 033d 9fdb 703d
000001c0: e7f8 1d3b 59c7 423d 2233 873d d3a2 163d
000001d0: 007e df3d 28c0 ff3c a700 61bb 7957 b5bc
000001e0: 71f4 04bd 834b 80bd a450 983b 92e0 9a3d
000001f0: 6313 81bb 565d 243c bd5d e8bc 3677 efbc
00000200: d27b 1d3d cdbe 88bd 6271 84bd 55e1 61bd
00000210: 4484 313d 3ec2 e13d 2a89 4ebd 3ea3 ea3d
00000220: 1068 c93d ba92 783d f43a e43c 5c53 f33d
00000230: 6bf2 c93d 60d7 73bd b2a1 383d c5e5 7dbd
00000240: acf8 26bd 4257 453c 6104 d73d cfe9 a8bc
00000250: def2 b0bc bcad 143d d0f7 d03d ab81 ad3d
00000260: c2ea 903d 054a 1ebd 9e03 9c3d 83d3 663d
00000270: f11f 6d3d fa07 27bd 14c4 aabd 45c3 e43d
00000280: f59d fcbb 15df 83bd d9ea eb3d fdf5 8fbd
00000290: 6514 f1bc 0c2d 0b3d 9289 c6bc 106d 9a3d
000002a0: 5044 2abd 8960 ba3d bc9f a3bd 3859 e43d
000002b0: 98f7 963c 94b1 efbc 0897 933d dca2 363d
000002c0: 3cb1 0b3d c5ad 74bd 7e2d c43c 1a71 b0bc
000002d0: fca2 38bd 2360 863d 4c39 1b3d dd1f 17bd
000002e0: 30fc c2bc b0c8 893d b410 ca3d ccd4 bd3c
000002f0: c82b 1d3c 6f6d 3f3d 2b36 c43d 2e46 a6bd
00000300: 1ae0 743d 8a96 23bd abde abbc f1c4 153d
00000310: 1af9 673d 72c6 a6bb 760e b43d 7548 44bd
00000320: 8c58 23bc 0594 bc3c 22bb 1ebc e1c4 0e3d
00000330: 4686 853c 25dd 173b 55ec 893d c645 a4bc
00000340: 0166 413d 9535 cf3b 09bd 2cbd bc93 1d3d
00000350: e33c 65bc 036f 0fbd ae18 3b3d 320e 81bd
00000360: c63b 2fbd d0f3 12bc 87d6 053c d70c 193c
00000370: ca37 83bd c04c b63d 12ba c83d 2de7 3d3d
00000380: 2c92 383c 9fff 11bd 562a 393c 1ce8 743d
00000390: 6710 793d 83b6 c63d 8cdb a8bc fc87 b1bc
000003a0: 5268 3dbd f8ea 0abd d24f 923d e51f ee3d
000003b0: 6e47 833c 2c7c 743c e27e f53d 1eca 923d
000003c0: 4315 d43d 8f23 8ebc 161c 94bc c982 863c
000003d0: e716 a73d 7ac3 733d 2d87 13bc d58f 88bd
000003e0: cf98 50bd 838e 8a3d 6129 9f3d ba52 853d
000003f0: 3331 1fbd 83c4 38bc 82d2 1bbd 9d86 c13b
0.09615241 -0.055373654 0.06855079 0.019390596 0.012083712 -0.01824564 -0.006595415 0.026615717
-0.039709136 0.07944289 0.031790625 0.05678037 -0.029311994 -0.03005843 0.009661816 -0.020504378
-0.004663769 -0.054466486 0.033118542 0.016784703 -0.016978987 0.061681423 -0.057951678 -0.0146091245
-0.028957793 0.089537196 -0.038763203 0.06790356 0.09540354 0.072616786 0.09277261 -0.028150663
-0.0034719743 -0.05785013 -0.03246272 0.009925069 0.036747288 0.01481199 0.0714035 0.06670456
0.026140265 0.08897528 0.07699264 0.10812726 -0.025949838 0.05938848 0.056433205 0.03338012
-0.057096593 -0.07524784 -0.028065976 -0.08035531 -0.062873006 0.008627029 0.07493296 -0.028292365
-0.0010589864 0.050717358 -0.0326841 0.031910043 0.042122863 0.012480846 0.05834993 0.06686483
0.08002164 -0.0412248 0.07518576 -0.054084793 -0.059234336 0.12085708 0.0899468 0.07725097
0.07505878 -0.005434218 -0.0054779714 -0.022251498 0.082165785 0.06402799 -0.03148497 0.043924402
0.06383259 -0.0067191105 -0.058585793 -0.04819744 -0.06733517 0.097534016 0.030073851 -0.04701081
0.02262891 -0.03817618 -0.013142564 0.016348485 0.021759374 0.077957205 -0.04298603 -0.003917859
-0.05826181 0.05987432 -0.056009844 0.019912686 -0.057985745 -0.04365749 0.047448553 -0.06246598
-0.03678505 -0.06825345 0.03423256 0.10564826 0.05085232 -0.0058427467 0.032098975 0.058803197
0.0024104656 0.047553394 0.0660155 0.036776375 0.109127045 0.031219557 -0.0034332664 -0.022136437
-0.03245968 -0.06264403 0.004648285 0.07562365 -0.0039390787 0.010032019 -0.02836501 -0.029231649
0.038448162 -0.06677017 -0.064669386 -0.055146534 0.04333903 0.11023377 -0.05042378 0.11456917
0.098343015 0.060686804 0.027860142 0.11881134 0.09860691 -0.05953157 0.04507608 -0.061986703
-0.040764496 0.01204473 0.10498882 -0.020619301 -0.021600183 0.0362985 0.102035165 0.08471998
0.070760265 -0.03864481 0.076178774 0.056354057 0.05789179 -0.04077909 -0.0833818 0.11170057
-0.0077092596 -0.06439034 0.11519403 -0.070293404 -0.02942867 0.033978507 -0.02423552 0.07540333
-0.041569054 0.09100444 -0.07989451 0.111498296 0.018428609 -0.02925948 0.07206541 0.04458891
0.03410457 -0.059736032 0.023947474 -0.021538306 -0.04507731 0.065613054 0.03789644 -0.03689562
-0.023801893 0.06727731 0.09866467 0.023172759 0.009592958 0.046735223 0.09580644 -0.081188545
0.059784032 -0.039938487 -0.0209802 0.03656477 0.056634046 -0.0050895745 0.08791821 -0.047920663
-0.009969842 0.0230198 -0.009688171 0.034855727 0.016299378 0.0023172584 0.0673453 -0.020052802
0.04721642 0.006323526 -0.042172465 0.03847097 -0.013991567 -0.03501798 0.045677833 -0.06301536
-0.042781614 -0.008969262 0.008168823 0.00934144 -0.06407125 0.08901358 0.09801115 0.046363045
0.011265319 -0.03564417 0.011301598 0.05979167 0.060806658 0.0970278 -0.0206125 -0.021671288
-0.046242066 -0.03391549 0.07144131 0.11627177 0.016025271 0.014922183 0.119870916 0.07167457
0.10355618 -0.01735094 -0.018079799 0.016419785 0.08158665 0.059512593 -0.009004396 -0.06668059
-0.05092698 0.06765463 0.07771564 0.065099195 -0.03886528 -0.011277321 -0.038042553 0.0059059397

lstm.bias_hh_l0 f4 [512]
00000000: 6a02 e9bb 50f7 ab3d 42a1 a03d 2e0b 76bd
00000010: 5c56 acba ee45 563d 137d 993d d129 b53d
00000020: bb03 64bd 705f 72bd 7f51 8e3d 4857 fc3a
00000030: e331 11bd 6fcf 47bc 2b5e 6e3d e221 53bc
00000040: ad8f 6c3d 34e5 c23c b8c3 af3c 740e c4bc
00000050: 97c8 58bd e804 81bd ddef 0c3d 616e ad3d
00000060: 5298 93bd 19e6 51bc adba 323b fdfb 87bc
00000070: 5f7f 39bd bc42 983c c9ba 53bd 9796 c0bc
00000080: 68ce 8ebd 88e0 2c3d 0ea2 fc3c 110b 2e3c
00000090: 8cc3 41bd 8491 e83d 5a57 e33d 5988 ad3d
000000a0: ba05 5c3d aef4 d73d 39bb 8e3d f4e3 8a3c
000000b0: 40c1 e83b b080 b7bc 49a2 6b3d a390 72bc
000000c0: 5e84 8aba 6598 013d b97e 153d 5d13 89bc
000000d0: 1569 62bb 07b1 b33c fb11 a4bd 5cd5 8e3c
000000e0: e75e 4c3d 908f 53bd ec99 393d b35a 59bd
000000f0: b632 523d f815 9e3d 5fdf 293b a997 e13d
00000100: 9f51 9cbd d1f7 023d 620d 7abd b583 313c
00000110: b883 76bc 1a7f 2d3c 9d8d 57bc f519 2abc
00000120: c6c1 d73d 97ea 503d 04f6 d03d f553 2dbd
00000130: 6ed6 b33c 0c60 d13d e8e9 23ba d830 9f3d
00000140: d433 49bd 0883 4bbd c2c5 c43c 084f a33c
00000150: ef4c ca3c f912 2d3d e4db cbbc 2005 633c
00000160: 7ecf 0a3c f1ef 85bd adc8 aabc b50a 35bc
00000170: 6c92 893d d256 6bbd 164a 2abc 81d1 91bd
00000180: a439 9d3d 1d14 033d bf2c 37bb d06e 0ebd
00000190: dce2 093c 9e52 10bd 7ed7 d53b e175 93bc
000001a0: fca3 a63d a0d6 c13c 8f31 503d f871 2dbd
000001b0: 91a6 7dbd 2fd3 8bbd 7e1b 0ebd 06a2 983d
000001c0: 8250 173c fb59 743d 9189 833d aaf8 cd3d
000001d0: d78e 1ebd b66a 583c 33fc 113d 06e6 97bc
000001e0: fa02 6c3c 17fc 95bd 026d d03c dc14 d5bc
000001f0: ee58 54bc 9d01 a73d 9d5b dabb 1253 c63d
00000200: 8f73 893d 09cc 953d 5ba9 b0bc a3e6 52bd
00000210: e5cd 7fbd 48d4 b13d a335 dd3d 459d 61bc
00000220: c550 0d3d a808 293d f011 17bd d416 b8bb
00000230: 0267 c4bb 5500 da3d d292 16bc 8afa 0abd
00000240: 7672 57bd 1295 92bd 227b ef3c 006b 143d
00000250: 727c 99bd e77c 02bd 7d61 483d 3cea e5bc
00000260: b9f0 29bb 4fe2 a23d db18 d73c a411 9b3d
00000270: dddf 783d aa4b ba3d 1b4f 19bd df3f b63d
00000280: 2c0f a7bd 5c1b 4abd f4bb 5d3d 57ab 003d
00000290: 682b 183d 207c 713c c93e 983d 6d31 07bd
000002a0: b821 3ebd 79b9 aa3c 32ad f93c 345f e53c
000002b0: 269d 273d 54e1 383d 0cb2 21bd 5069 c03d
000002c0: 6cca 9fbd c8ef 653b 33a8 9b3d ab64 ccbc
000002d0: d9cf ba3d 7030 5a3d 52da d93b 96ec d13d
000002e0: cc62 ec3c b232 16bd 122f 2ebd a486 303d
000002f0: f574 c43b 4b10 bb3d 8179 c83d 7657 bb3d
00000300: 4e1b 573d ee81 6abd 7831 a83d 0c05 b8bd
00000310: 5a1f 09bd b4cf 9ebc 4dce 453c 41e5 933d
00000320: a223 c1bc 3f95 86bd 72a6 6a3c a24e 60bd
00000330: c2e7 813d ddec c63d 5f76 b0bd 48f8 5f3c
00000340: cf3a fcbc 6071 933d 2a53 11bc e113 113c
00000350: 42e5 bd3d 6d96 363d c84f 8f3c b2f7 8f3c
00000360: 5d5c cdbc 2ca0 f13c bb0e 063d 8415 a13d
00000370: 24d9 953d efb8 10bc 7fec 413d 2614 27bd
00000380: b4bd 8c3d 7e72 93bd ad0e de3d e3d6 4f3d
00000390: 23a3 423d 18f0 0a3d 9f76 f23c d6ce ff3c
000003a0: 1012 583c 8dea a7bd 7b91 3e3d 3f13 953d
000003b0: 3f04 63bd 8ffb aebc 146d d03d be8d 143d
000003c0: 2624 913d bd24 d33d 243c dabc d97d b93d
000003d0: d390 733d 72c2 aa3d 8c57 a83d 3c43 90bc
000003e0: e8fc d03d 2604 873d b5a3 cabc 26f3 213c
000003f0: 00f3 8a3d fb4a 5cbd 4d28 eebc 906c 093d
-0.0071108835 0.083967805 0.078432575 -0.060069256 -0.0013148296 0.052312784 0.07494559 0.088458665
-0.05566762 -0.059173048 0.06949138 0.0019252086 -0.035447966 -0.012195452 0.058195274 -0.012886496
0.057754207 0.023790933 0.02145563 -0.023932673 -0.052925672 -0.06299764 0.03440844 0.08468319
-0.07206787 -0.012811207 0.0027271912 -0.01659965 -0.045287486 0.018586509 -0.051691804 -0.023509307
-0.069729626 0.042206317 0.030838992 0.010622756 -0.04730563 0.1135588 0.11100645 0.08473272
0.0537164 0.10544716 0.06969304 0.0169544 0.0071031153 -0.02240023 0.057527814 -0.014804992
-0.0010568013 0.031639475 0.036497805 -0.016732866 -0.0034547497 0.021935 -0.08011242 0.017435722
0.049895193 -0.051650584 0.045312807 -0.053065013 0.051317893 0.07719034 0.0025920493 0.11015255
-0.076327555 0.031974617 -0.06104792 0.010834624 -0.015046053 0.010589385 -0.013156322 -0.010382165
0.10535006 0.051004972 0.10203174 -0.042316396 0.021952834 0.102233976 -0.0006252811 0.07772988
-0.049121693 -0.049685508 0.02402008 0.019935146 0.024694888 0.04225442 -0.024885125 0.013856202
0.008472322 -0.06539906 -0.020847643 -0.011049916 0.06717381 -0.057455845 -0.01039364 -0.07120038
0.0767701 0.032001603 -0.0027950255 -0.034773648 0.008415904 -0.03523504 0.006525933 -0.018000545
0.08136746 0.023661911 0.050828513 -0.042345017 -0.06192643 -0.068273894 -0.034694187 0.074527785
0.009235503 0.059656125 0.06422723 0.100571945 -0.03871044 0.013209036 0.035640907 -0.0185423
0.014405007 -0.07323473 0.025442604 -0.026010923 -0.012960656 0.081546046 -0.006663753 0.09683813
0.06711494 0.07314307 -0.02156513 -0.051489484 -0.062452216 0.086830676 0.10801246 -0.013770406
0.034500856 0.04126802 -0.03688234 -0.0056179557 -0.005993725 0.106445946 -0.009190278 -0.03393034
-0.052599393 -0.07157339 0.029233519 0.036234856 -0.07494439 -0.031857397 0.048921097 -0.028065793
-0.0025930835 0.07953321 0.02625697 0.07571724 0.060760368 0.09096463 -0.037428956 0.08898901
-0.08157191 -0.0493425 0.054134324 0.031413402 0.03715077 0.014739066 0.0743385 -0.03300612
-0.046418875 0.020840393 0.030478094 0.027999498 0.040921353 0.045136765 -0.03947644 0.09395087
-0.07802281 0.0035085548 0.07600441 -0.024950346 0.09121675 0.05326885 0.0066483403 0.10250203
0.028855704 -0.03666944 -0.04252536 0.043097153 0.0059953877 0.09133967 0.097888 0.09147541
0.052516274 -0.057252817 0.082125604 -0.089853376 -0.033477165 -0.01938615 0.012073112 0.07221461
-0.023576561 -0.06571435 0.01432191 -0.05476249 0.063430324 0.09713147 -0.086163275 0.013670035
-0.03078976 0.07199359 -0.0088699255 0.008854837 0.09272243 0.04457705 0.017494097 0.017574165
-0.025068456 0.029495321 0.03272889 0.07865432 0.07316807 -0.008833154 0.04734468 -0.0407907
0.068721205 -0.07199572 0.10842643 0.05074204 0.04751886 0.033920377 0.029597579 0.031226557
0.0131879 -0.08199034 0.04652546 0.072790615 -0.05542397 -0.021360187 0.10177055 0.03626799
0.07086973 0.10309742 -0.026640005 0.09057207 0.059464287 0.08337869 0.08219823 -0.017610185
0.10204488 0.06592588 -0.024736265 0.009884631 0.0678463 -0.053782444 -0.029071951 0.0335508

fc.weight f4 [35, 128]
00000000: 3074 633d 3ab0 9fbd e618 6b3d 9de5 9a3d
00000010: ddea 8a3d 779c 9ebd efe9 113d 92bf 283d
00000020: ee3b 2bbd 31d1 5abd 2113 5d3d 0ced 8e3d
00000030: f3b2 e1bd 288d acbc 6e6b 3f3d fee0 b4bd
00000040: 0468 40bd 8392 b03d 3375 a23d d0ba e5bc
00000050: 18f9 343d e174 98bd 90af 9e3c e38b 81bd
00000060: 51c3 663d 2e6f 473d 2347 99bd 84d8 163b
00000070: ff69 35ba c602 593c 1684 f13d 2aa0 45bd
00000080: 5674 b2bc 09bf 893d 2165 663d 6f43 a03d
00000090: 42a2 df3a acb5 95bd 64a3 493d ab19 af3d
000000a0: 6fc9 63bd 3fff 64bc ba5d cbbd b23f 75bd
000000b0: 2cf8 8b3d a8db 7abd 6ea2 aebb 10d4 10bd
000000c0: 2843 a13c d053 8e3d f0dc ad3b fd8f 723d
000000d0: 29c4 56bc f6ec 4d3c 5b4f 03bd 4381 833d
000000e0: 2c52 a3bd cc3e a7bd 976c 79bd d2c5 6e3d
000000f0: 3b83 26bd 113f 0abd c4d3 b03d 84c3 2dbd
00000100: 5a1f 063d 5b67 8abd 2759 07bd 3cbc 1dbd
00000110: da24 043d 44e2 85bd 4f30 ad3d 7a53 e7bc
00000120: 101e c13c 572d 1f3d b07e 893d e05f a13d
00000130: ea9b 393c eaaa bb3d 25d7 963c 4d68 c63c
00000140: b3c8 d7bd 90ea 06bc 163c cd3b 1e99 3ebd
00000150: 7c66 c1b8 f09c 0bbc 2334 663a 6212 fbbc
00000160: 8d93 01bc fe37 753d facd 86bd 18de 28bd
00000170: 906e f6bc 6b77 edbc 6695 4f3d 48f1 3a3d
00000180: da19 353c ac9f 22bd a57b 893d 1466 15bd
00000190: 4d78 1c3d ae69 19bd 435e 673c ccf2 b93d
000001a0: b8ff 94bd 6907 4ebd ee56 8a3c 9496 c2bb
000001b0: f671 593d 97c1 d83c 4efa eabc ac7a efbb
000001c0: 34d5 3d3d 51e7 44bd 734a ccbc 462a 7c3d
000001d0: adaa 7bbd 104f c9bd 8451 983d 8dc2 fb3c
000001e0: 2731 f93c d95b 323d e93b 4b3d cfca d53c
000001f0: 65d3 54bd 80fb 5bbd 140a 223d 6ab6 56bd
00000200: 7314 9d3b 8ef0 8ebd d6e9 193c 0c4d a0bb
00000210: d1e1 c43d 0afd 4a3d d4cc 2dbd 0b89 a93c
00000220: 91c8 2ebd 08cd 543d 3837 713d c314 8ebd
00000230: 33c7 b33d a8f3 3dbd edb9 93bd 513f 033d
00000240: ebe5 efbc 6494 92bd 0b1e 06bc e77b 8abd
00000250: d196 42bd fa31 ee3c f70e 60bd 79a6 143d
00000260: ab06 81bd f250 c6bd c0ff 8dbd e046 423d
00000270: bd16 b43c 3b22 aebc 459d 753d 0bbf 6b3c
00000280: a20e 92bc 43a8 81bd e57d af3c db53 103d
00000290: 42e2 6c3d d99b 333c b6e9 05bd 34f3 eb3c
000002a0: 1ebf d33c 7118 cd3d 42c1 cc3d 884f a8bc
000002b0: 9fdd bfbd 1ce7 533d 89b2 8fbd e49a 2a3d
000002c0: fffe 2ebd 56db bfbd 56c4 20bd 2add 533d
000002d0: 9402 3a3d 368f 7f3d 7057 f03c 8c3c 0e3d
000002e0: 4afb 5ebd a8a9 53bd 289a da3b 3119 423d
000002f0: 8c43 81bc a3d3 a53d da0b debc 4c0e 9e3d
00000300: 533e 2fbd 897d 5a3d ecf6 d5bc c9fc 0e3d
00000310: 71af 2a3d 46fb c9bd fc89 9538 bfba 03bd
00000320: f02e 163d 3d05 1a3d bce5 4dbd aed9 833d
00000330: eeb0 ba3d 278d 9a3d 6a26 d53c ddeb bc3c
00000340: d785 cc3d 0b17 b4bd 9344 e4bc aaf9 443d
00000350: ef9b 03bc a4c7 b83d 53bf 5b3d d6ab c43c
00000360: e9d5 a4bd 95de 143a a12d 3e3d 4b83 613d
00000370: 4b82 ad3d 216b 513c c610 b5bc 1b04 d3bc
00000380: 9551 7b3d 9e93 953c 0e9d 50bd 8267 1ebb
00000390: 4ed8 9b3d c7e5 ce3c 5258 7b3d d000 b5bb
000003a0: 0fd7 ba3c 9c9b c43d 0c45 c1bb 53a4 24bd
000003b0: b62b 143d f188 c63c 44f9 80bd 00a8 dd3c
000003c0: 8af0 c23c 3205 8fbb 4661 97bd dc11 9d3d
000003d0: 06bb e43c 0e03 913d 3d65 c93c e3c9 b9bb
000003e0: 0800 ad3d ff03 283d 2b77 cb3d e371 853c
000003f0: 1e56 403d ae93 adbd 70d1 93bb 659b 143d
0.055530727 -0.077972844 0.057396792 0.075633265 0.06783078 -0.07744687 0.035623487 0.04119832
-0.0418052 -0.053422157 0.05397332 0.06978807 -0.1102046 -0.021063402 0.046733312 -0.08831976
-0.046974197 0.08621695 0.0793251 -0.02804318 0.044182867 -0.07444168 0.019370824 -0.063255094
0.056338612 0.048690014 -0.074842714 0.0023017237 -0.00069203967 0.01324529 0.117927715 -0.048248447
-0.021783989 0.0672589 0.056248788 0.07825362 0.0017061906 -0.07310042 0.049228087 0.08549818
-0.055612024 -0.013976871 -0.09929986 -0.059875198 0.068344444 -0.061244637 -0.0053294217 -0.03535849
0.019685343 0.0694958 0.005305879 0.05921935 -0.013108292 0.012568703 -0.0320581 0.06421139
-0.079746574 -0.081662744 -0.060894575 0.058294125 -0.040652495 -0.03375155 0.08634141 -0.042422786
0.032744743 -0.06757995 -0.033044007 -0.038509592 0.032261707 -0.06537297 0.0845648 -0.028238047
0.023573905 0.0388616 0.06713617 0.07879615 0.011328677 0.09163459 0.018413136 0.024219656
-0.10536327 -0.008234635 0.0062632663 -0.046532743 -9.222046e-05 -0.008521304 0.00087815727 -0.030648414
-0.007908714 0.05986785 -0.06582256 -0.04122743 -0.030082017 -0.028987607 0.050679587 0.04564026
0.011053527 -0.039703056 0.067130364 -0.036474302 0.038200665 -0.0374543 0.014121595 0.09079513
-0.07275337 -0.050300036 0.016887154 -0.0059383605 0.053087197 0.026459498 -0.028683808 -0.007308325
0.046345904 -0.048072163 -0.024937844 0.061563753 -0.061442066 -0.09829533 0.07437423 0.030732417
0.030418945 0.043544624 0.04961768 0.026097683 -0.051959414 -0.053706646 0.039560392 -0.052420057
0.0047936975 -0.06979476 0.00939413 -0.004891997 0.096133836 0.049557723 -0.042431667 0.02069523
-0.042671744 0.051953346 0.05889055 -0.06937554 0.087782286 -0.046374947 -0.07213197 0.032042805
-0.029284438 -0.071572095 -0.008185874 -0.06761914 -0.04750711 0.029076565 -0.05470177 0.036291573
-0.063001 -0.09683408 -0.06933546 0.047430873 0.021983499 -0.021256557 0.059964437 0.01438881
-0.017829243 -0.063309215 0.021422336 0.03523622 0.057832964 0.01096245 -0.032693587 0.028802492
0.025847968 0.100144275 0.099977985 -0.020545736 -0.09368443 0.051734075 -0.07016475 0.04165162
-0.042723652 -0.09368007 -0.03924974 0.05172459 0.045412615 0.062392436 0.029338568 0.03472571
-0.054438867 -0.05167547 0.006671209 0.047387306 -0.01577928 0.08097007 -0.02710526 0.07717571
-0.042784046 0.053342376 -0.026118718 0.034909043 0.04167122 -0.0986238 7.130575e-05 -0.032160517
0.036665857 0.037602652 -0.05026792 0.064380035 0.09115778 0.07546454 0.026019294 0.023061687
0.099864654 -0.087934576 -0.02786473 0.04808966 -0.008032783 0.090224534 0.053649258 0.024007719
-0.080486126 0.0005678919 0.046430234 0.05505685 0.08472117 0.012781889 -0.022102725 -0.025758794
0.0613571 0.018258866 -0.05093103 -0.0024170582 0.07609616 0.02525605 0.061363526 -0.0055237785
0.022807626 0.09599993 -0.0058981236 -0.040195774 0.0361745 0.02423522 -0.06297544 0.027057648
0.023796339 -0.004364633 -0.073916 0.07669422 0.027921211 0.07080661 0.024584407 -0.0056698187
0.084472716 0.041019436 0.09934839 0.016289657 0.046957128 -0.08475433 -0.004511051 0.03628101

fc.bias f4 [35]
00000000: 4d7b 803c 4f49 6f3d 3415 9bbd c4b6 a8bb
00000010: dfaf 41bd b9d6 813d b81b 02bd 6416 183d
00000020: c19b b6bd 581d 7f3d 9933 2e3d b072 5bbd
00000030: cdd3 073c 31af a1bd 5690 8bbd 7023 a53c
00000040: 3a6a 30bd 23fb 573d 98d2 95bd 557b 973c
00000050: c710 783d 7c6e a6bd bbc9 bd3d 3f71 25bd
00000060: 5ea2 b23c cfbf 383d beb4 b4bc 0a42 bcbc
00000070: 7b6f 1fbd a08c ffbb 83ea d4bc 51d7 7e3d
00000080: aa12 8a3b 1fe5 0dbd ea3d 35bd
0.015683794 0.058419522 -0.075724036 -0.0051487405 -0.047286864 0.06339783 -0.031764716 0.03713073
-0.089164265 0.062283844 0.042529676 -0.05357617 0.008290243 -0.07894743 -0.06814639 0.0201585
-0.043070056 0.052729737 -0.07315558 0.018491426 0.060562875 -0.08126542 0.09266993 -0.040391203
0.021805938 0.045104798 -0.02205884 -0.022980709 -0.038924675 -0.007798746 -0.02599073 0.06221706
0.0042136507 -0.034642335 -0.0442485
